agent_actor.pth (torch, 408069 bytes, 4 tensors)

fc1.weight f4 [128, 770]
000000 19 73 d6 3c b6 09 c8 bc be 59 f2 bc e9 cb 91 bc
       0.02617793 -0.024418693 -0.029583808 -0.017797427
000010 c1 45 3a 3c 2b 53 2b bc 1f c9 4e 3c e3 ec b8 bb
       0.01136917 -0.0104568405 0.012621193 -0.0056434735
000020 60 26 f4 bc 4b ba a5 bb 77 3c e8 bc a1 f8 74 3c
       -0.029803455 -0.0050576082 -0.028349144 0.014951856
000030 3c 4c 6f 3c e1 d8 e1 3c e6 fa ce 3c d4 87 76 3b
       0.014605578 0.027569236 0.025266122 0.003761758
000040 fe 81 f8 3c a6 9d 88 3c 5f 35 9c 3c 76 a2 ad bb
       0.030335423 0.016676735 0.019068418 -0.005298908
000050 f3 a9 3d 3a a4 14 92 bc 0b bc 58 3c bc 5d f1 bc
       0.0007235102 -0.017832108 0.013228427 -0.029463641
000060 f7 e0 12 bd dc ee 9c bc 3a 2d c5 3c f5 c3 f4 3c
       -0.035859074 -0.019156866 0.024069417 0.029878596
000070 55 fd 05 bd 5a 88 4b 3b 9c e9 f8 3a ae 88 d2 3c
       -0.0327123 0.0031056614 0.001899052 0.02569994
000080 b8 57 20 3c 67 84 dc bc ad 77 36 bb 2a 6a 1e bb
       0.009786539 -0.026918603 -0.0027842328 -0.0024172165
000090 0a 5b a7 3b 32 c9 b2 3c 1e b8 22 bc 69 06 07 3b
       0.0051072882 0.021824453 -0.009931592 0.0020603186
0000a0 91 18 f5 3c 98 29 e7 bb ee 87 43 bb 0d 60 e1 bc
       0.02991894 -0.007054519 -0.002983566 -0.02751162
0000b0 45 80 31 bc b3 2f 41 3c 41 25 e1 3b 2b c1 07 3d
       -0.0108338045 0.011791158 0.006870896 0.033143204
0000c0 56 fe 18 3d cb 2c e5 3a 54 b5 f9 bc 77 0d c9 3a
       0.03735193 0.0017484663 -0.030481972 0.0015339096
0000d0 47 ff b7 bc f7 3a bb 3c 05 15 a4 3b dc 17 66 bc
       -0.022460593 0.022855265 0.0050073885 -0.014043774
0000e0 b2 da f1 bc 8f 17 50 3c 72 b4 05 3d ad da 0e bc
       -0.029523227 0.012700929 0.03264279 -0.008719129
0000f0 6b de 06 3b 06 94 f4 3c e2 fa 03 bc c8 af 77 bb
       0.0020579349 0.02985574 -0.008055421 -0.0037793983
000100 2a ad d9 bc c5 4c 3a 3c c3 cd 9b bc d8 0e 05 bd
       -0.026571829 0.011370842 -0.019019013 -0.03248486
000110 a8 55 84 bc 54 5b f9 bc 48 7c 16 bc 2b 51 cc 3c
       -0.016154125 -0.030439056 -0.009184904 0.024941048
000120 91 6a 47 3c 16 62 4b 3c c8 a8 4e bb 81 53 aa bc
       0.0121714035 0.012413522 -0.0031533707 -0.02079177
000130 2d 2b 06 3c c2 71 f6 bc 4c 32 ae bc be 5f 61 3c
       0.008189005 -0.03008354 -0.021264218 0.013755737
000140 67 bd 21 ba 49 b2 c2 3b d8 56 53 bc d7 9c e9 bb
       -0.0006169886 0.0059416634 -0.012899123 -0.0071292925
000150 61 4f a4 3c 1d df 77 bc 97 bd b2 3c f0 66 16 3c
       0.020057382 -0.015128878 0.02181892 0.009179816
000160 bb b0 4d bc 7c 9e 3a 3c fd 25 2a bb 3e 22 f1 3c
       -0.012554343 0.011390325 -0.0025962584 0.029435273
000170 68 11 9e 3c f8 b8 04 3d 36 69 7e bc d2 64 c8 bc
       0.01929541 0.032402962 -0.015528014 -0.024462137
000180 64 26 09 bd b0 7e 2a 3b 4a d4 b1 3c 89 b5 2d bc
       -0.033483878 0.0026015453 0.021707673 -0.010602363
000190 7e b9 a9 3c d6 91 f8 bc f1 f0 00 3c dd 96 be bb
       0.020718332 -0.030342977 0.007869945 -0.005816324
0001a0 cc 22 d1 3b a5 7c 4c bc 7c f7 08 bc b1 d8 a6 3c
       0.006382322 -0.012480889 -0.008359786 0.020366998
0001b0 34 ae 11 bd 68 b7 e9 3c a6 54 49 bc 6c ac 10 3c
       -0.035566524 0.028529838 -0.012288248 0.008830171
0001c0 5a 0e 05 3d 40 4f c6 3c a6 f9 19 3d 7a 53 02 bd
       0.03248439 0.024207711 0.0375916 -0.03181789
0001d0 26 1b bc bc 6b 0d 83 bc 9d 2b 09 3d 4b a5 36 3c
       -0.022962164 -0.01599761 0.03348886 0.011147807
0001e0 39 f0 ce 3c e7 55 47 3a 34 17 0b bd 11 f1 cb 3c
       0.025261031 0.0007604048 -0.033957675 0.024895223
0001f0 4b 59 0b bd e0 4e 48 bb d1 a4 0b bd c4 a7 fc bc
       -0.034020703 -0.0030564591 -0.034092728 -0.030841716
000200 45 d4 c9 bc fa ef 0b 3d 24 4b 49 bc d5 09 31 bc
       -0.02463735 0.034164406 -0.012285981 -0.010805567
000210 91 d1 00 bd 82 c2 54 bc f8 71 0f bd 7c 06 f8 ba
       -0.031449858 -0.012985827 -0.0350208 -0.0018922831
000220 8b 81 fc bc db d1 97 3c 83 09 77 bc c6 93 57 3c
       -0.03082349 0.018532684 -0.015077951 0.0131577905
000230 5b 64 85 3b 53 1c f8 3c fc ff 84 bc 0e d3 c6 bc
       0.004070801 0.030286944 -0.016235344 -0.02427056
000240 da 24 df 3c c6 d9 f3 bb 24 04 b7 3c 69 d4 8e bc
       0.027239252 -0.007441732 0.022340842 -0.01743527
000250 d7 df f6 3b 8d 1e 13 bc 75 5f d9 3c 08 db f7 bc
       0.007534008 -0.008979452 0.026534775 -0.03025581
000260 5e 1e d3 3c 94 d8 8d ba 2f c1 4d bc a7 9a 49 bc
       0.025771316 -0.0010821992 -0.012558266 -0.012304938
000270 54 68 af 3c f8 0b e9 3c ce da 0b bd 78 2a a7 b9
       0.021412052 0.02844809 -0.034144215 -0.00031884364
000280 7d 20 d5 ba 83 02 9d 3b ef 2a 9c bc 0e 64 ea bc
       -0.0016260293 0.004791559 -0.019063441 -0.028612163
000290 43 f9 3e bc 12 41 c4 3c 5d d8 06 bc fa 48 dd bc
       -0.011656108 0.02395681 -0.008230296 -0.027012337
0002a0 ea 12 13 3d ac 49 17 bc ba ee 13 bc e3 12 2b bc
       0.03590671 -0.009233873 -0.009029085 -0.010441515
0002b0 b9 a5 71 bc e9 7c 8a bc 04 fb ac bc eb 10 05 3d
       -0.014748984 -0.016905265 -0.021115787 0.032486837
0002c0 41 67 22 bc 74 50 88 bc 94 79 d9 bc 36 cb aa bc
       -0.009912313 -0.016639926 -0.02654723 -0.020848852
0002d0 9c 92 0e bd 4a 76 0b bc 96 e9 ca bc 01 2c 55 bc
       -0.034807786 -0.008512089 -0.024769586 -0.01301098
0002e0 71 24 32 bc c0 40 fa 3c c6 c4 0a bd d3 c8 02 3c
       -0.010872946 0.030548453 -0.033879064 0.007982451
0002f0 da 24 b3 3c 41 2c bd 3c 14 14 13 3d 05 c0 f3 bc
       0.021868158 0.023092391 0.03590782 -0.029754648
000300 7e ba d1 3b d3 9e a6 3c ca 64 48 3c 17 e2 0e 3d
       0.0064004054 0.020339405 0.012231061 0.034883585
000310 47 1e 0b 3d 5a 6d fc bc 5b 11 e8 bc e2 22 06 3d
       0.03396442 -0.030813862 -0.028328588 0.03274811
000320 f8 da e3 bc 4d 5c a2 3c 5f ca 8f bc f1 64 78 bc
       -0.027814373 0.019819403 -0.017552553 -0.015160785
000330 2d 62 ac 3b 14 9f bf b9 17 1c 5c bb f5 2b c2 bc
       0.005260727 -0.0003654888 -0.0033586079 -0.023702601
000340 71 12 ef bc 10 41 7b 3c a9 90 0e bc d5 55 8a 37
       -0.029183598 0.015335336 -0.008701482 1.649085e-05
000350 8d 4d 10 bd 93 7d 34 bc 30 64 42 bb 74 21 86 bc
       -0.03523021 -0.011016267 -0.0029661767 -0.016373374
000360 32 6c 9e bc c3 56 04 3d 67 47 22 bc 90 a4 6e 3c
       -0.0193387 0.032309305 -0.009904719 0.014565602
000370 3f 7d b4 3c fc f0 c1 bc 65 87 20 3c b3 f9 f4 3c
       0.022032378 -0.02367448 0.009797906 0.029904222
000380 db eb fa bb 53 b6 24 3b ca c9 ba 3b 53 65 c6 bc
       -0.0076575107 0.0025133088 0.0057003247 -0.024218237
000390 99 a3 b1 3a 68 12 87 bc 7c 87 83 bc fd fe e5 3c
       0.0013552784 -0.016488269 -0.016055815 0.02807569
0003a0 8b 6e de 3c 6f 50 79 3c 7c d5 08 bc 6a 06 df 3b
       0.02715232 0.015216931 -0.00835168 0.0068061845
0003b0 29 2d e2 3c 32 e3 c7 bc 64 ee f6 bb 3c 68 ac 3c
       0.027609425 -0.024400327 -0.0075357426 0.021045797
0003c0 4d ad f2 bc 68 4d bd bb 09 62 f3 3c 8c f3 4c 3c
       -0.029623652 -0.00577705 0.029709833 0.012509238
0003d0 92 1c 8a 3b 25 b0 06 bc f5 5c ef 3b bf cc 0c bd
       0.0042148316 -0.008220707 0.0073047825 -0.03437495
0003e0 45 74 3c 3c 7b 20 15 bc 23 65 66 3c dc 8b 0a bd
       0.01150233 -0.009101982 0.014062199 -0.033824787
0003f0 3e 1a a6 3c 0b ad b3 3c 45 51 58 3b 7a 27 0e bd
       0.020276185 0.0219331 0.0033007425 -0.034705617

fc1.bias f4 [128]
000000 5d 60 95 3c cd 22 79 bc 8f cb ae bc 53 7e b5 3b
       0.018234426 -0.015206051 -0.021337299 0.0055387407
000010 25 33 a8 bb 34 d8 b1 3b 77 b9 02 3d 21 18 eb bb
       -0.00513305 0.0054273847 0.031915154 -0.0071745072
000020 85 b8 8d bc 5a 95 aa bc 1c 2c 01 3d b7 37 63 bc
       -0.0172999 -0.02082317 0.031536207 -0.013868264
000030 59 6f 9a bc 08 7c 50 bc 77 54 95 bc c9 d5 fa bc
       -0.018851923 -0.012724884 -0.018228753 -0.030619519
000040 30 8c 0f bd c3 c7 3f bb eb db 62 3c 31 63 1d 3d
       -0.035045803 -0.0029263354 0.013846378 0.038424674
000050 95 d4 d9 bb 33 db df bb 52 fd 00 3d eb 7f 7f bc
       -0.006647656 -0.0068315505 0.031491585 -0.015594463
000060 07 ca 09 3d ad 9c a9 bc cd f5 40 3c fb b8 04 3c
       0.033639934 -0.020704592 0.0117773535 0.008100743
000070 6b c5 e1 3c ba 38 a3 bc 08 ef 86 bc 07 83 fc 3c
       0.027559957 -0.01992451 -0.0164714 0.030824197
000080 3d 4e e5 bb f0 2a c0 3c 44 a7 08 bd cf 7e d3 3c
       -0.006997852 0.023457974 -0.033362642 0.025817303
000090 9f 7a 09 bc 82 5b 7a bc 8a e1 69 bb a5 54 fb bc
       -0.008391052 -0.015280606 -0.003568741 -0.03068001
0000a0 f6 47 6b bc 57 0e 42 ba 0c 6a fa bc 45 d3 f3 3c
       -0.014360419 -0.00074026495 -0.030568145 0.029763827
0000b0 49 04 84 bc d0 20 eb 3c 79 5b 06 bd 35 4d cc 3c
       -0.016115325 0.02870217 -0.03280208 0.024939159
0000c0 c3 56 b7 bc e2 eb 09 3d 49 5f 96 3c b1 60 c9 bc
       -0.022380238 0.03367222 0.018355982 -0.024582239
0000d0 de b4 e7 bc dd 5b 61 bc bb 91 c4 bc 53 29 e7 3b
       -0.028284486 -0.013754812 -0.023995271 0.007054487
0000e0 d5 a4 e7 3c 32 78 08 bc 8b c0 3a bc df d8 df bc
       0.02827684 -0.008329438 -0.011398445 -0.027325092
0000f0 fb 84 fc 3c 5b ac 96 3c cf af a1 bb dc ee cd bc
       0.030825129 0.018392732 -0.004934288 -0.025138311
000100 c9 a2 00 bd 8a 62 09 3d 8c bd c6 3c b3 9c d8 3b
       -0.031405244 0.03354124 0.024260305 0.006610477
000110 b2 08 d8 3c ed b7 88 bc 17 53 b5 bc 3e ce f6 3c
       0.026371334 -0.016689265 -0.022134347 0.03012764
000120 13 68 ce 3b 8a 7a fe bb 30 a4 8c bc 9a 3c 0d bd
       0.0062990277 -0.0077660726 -0.017168134 -0.034481622
000130 75 4a b4 3c 93 af af bc 5e 46 98 3c 40 96 bd bc
       0.02200816 -0.021446025 0.018588241 -0.023142934
000140 cc d0 36 bb 98 b2 d2 bc 9c e9 85 3b b6 59 0b bc
       -0.0027895449 -0.025719926 0.0040866863 -0.0085052755
000150 73 91 02 bd e3 ad 36 bc f4 28 eb bb 8e 0d fb bb
       -0.031876992 -0.011149856 -0.007176513 -0.007661528
000160 2b aa 79 3c 84 91 4b bc 8c e0 11 bc d8 a2 d5 bb
       0.015238325 -0.01242483 -0.008903634 -0.0065196566
000170 50 77 7c bc b3 0b 0e bc 9c 41 0b bd e1 07 48 3c
       -0.015409306 -0.0086697815 -0.033998117 0.01220891
000180 90 e6 f4 bc 7c 27 13 bd f5 22 00 3d 30 be 00 bd
       -0.029895097 -0.035926327 0.031283338 -0.031431377
000190 7f d4 c0 bc 44 1c 8e 3c f2 26 70 bc fe 82 c6 3c
       -0.023538826 0.017347462 -0.014657723 0.024232384
0001a0 ea ca d6 bc e4 cc 34 bc a2 64 d1 bb 87 99 86 3c
       -0.026219804 -0.011035178 -0.00639017 0.01643063
0001b0 40 e5 eb 3b df 60 a2 3a cd 38 0f bc c2 0c 59 bc
       0.0071989596 0.0012388489 -0.00874157 -0.013247671
0001c0 fc 1b 26 3d 21 80 13 3c 60 3c bf 3c ec 87 19 3d
       0.04055403 0.009002716 0.023344219 0.03748314
0001d0 91 b6 e7 3c fd ca b0 3c 4c d1 d5 3c 8c 6d cc bb
       0.028285297 0.021581167 0.026100777 -0.006238645
0001e0 64 2f 91 bb b6 66 cb 3a 6d 58 78 bc 72 c6 c2 bc
       -0.004430698 0.0015518281 -0.015157801 -0.023776267
0001f0 89 ba fa bc 29 7a 93 bc 8f 43 f9 3c 78 5a ed 3c
       -0.030606525 -0.018002586 0.030427722 0.028973803

fc2.weight f4 [21, 128]
000000 95 00 fe bc 46 52 c4 bc fe e1 a2 bd 4f ce 18 3c
       -0.031006137 -0.023965012 -0.07953261 0.009326532
000010 8f e2 b1 bc ab 6b 61 bc 28 b2 a4 bd 10 88 55 3d
       -0.021714477 -0.01375858 -0.08041793 0.052131712
000020 8d 07 45 bd 9e 2f f3 3c 5e e2 e7 bc 4a 59 6a bd
       -0.048102904 0.029685792 -0.028306182 -0.05721406
000030 70 34 a3 bd 94 e0 59 3d 76 68 5f bd d8 8d 45 bd
       -0.07968986 0.05319269 -0.05454298 -0.048230976
000040 df 50 52 bb 97 03 9a bd a8 d9 16 bd eb 39 dc bb
       -0.003209166 -0.07520216 -0.036828667 -0.0067207715
000050 3a 66 63 bd fa 89 89 3d a4 1c 97 ba 0c 20 63 bd
       -0.055517413 0.0671577 -0.0011528921 -0.055450484
000060 ce d3 02 3d 05 9a 8c 3d 00 a8 b1 bc 9a ed 5a 3d
       0.031940274 0.068653144 -0.021686554 0.05344925
000070 a2 86 0e 3b 44 65 23 bd b4 7c 20 3a a4 64 a7 3c
       0.0021747728 -0.039891496 0.0006122098 0.020433731
000080 fe 2e 21 bd a8 34 30 3d 10 79 9a 3d a5 d7 70 3d
       -0.039351456 0.043018967 0.07542622 0.058799405
000090 0c d3 fd 3c 0c d8 49 bd c0 aa 2b 3c bf 98 11 3d
       0.030984424 -0.049278304 0.010477722 0.03554606
0000a0 90 93 5d bc 46 4c 30 3d a3 6a 3b 3d a1 e0 99 bc
       -0.013523951 0.04304149 0.045755994 -0.01878387
0000b0 76 c5 a9 bc 12 8a 93 3d 68 bf ab bd c2 78 f5 3b
       -0.02072404 0.07204069 -0.08386117 0.007491202
0000c0 7d f9 7b bc 55 28 2c 3c 9e 0d 6c 3d 18 ec 1b bd
       -0.015379307 0.010507663 0.057630174 -0.038066953
0000d0 c0 aa ce 3c 76 3c 95 3d a3 1b 48 3c d5 fb 22 bd
       0.025227904 0.07286923 0.01221362 -0.039790947
0000e0 25 94 15 3c 3e 2c a4 3d c2 be 9d 3c 7a 3d a5 3d
       0.009129559 0.08016251 0.019256 0.08068366
0000f0 7a 11 7a 3c 5d 3e 28 3d 16 bc 8e 3d 4c cc 15 bd
       0.015262956 0.0410751 0.06969468 -0.036571786
000100 b6 b5 2f 3d 45 d6 79 3d ae 6f b2 bd 9c f2 93 bd
       0.042897902 0.06099536 -0.087127075 -0.072240084
000110 55 c0 91 bd e7 a8 2a 3d a3 2d a6 3c 57 0a 8b 3d
       -0.071167625 0.041664984 0.020285433 0.067890815
000120 6c e5 a2 3d 28 bb 7c bd 4b c8 a2 3d 9a d6 3d 3d
       0.07953915 -0.061701924 0.07948359 0.046347238
000130 40 e5 87 3c b0 7c e6 bc 62 8d 22 bd e8 ab 3b bd
       0.016588807 -0.028135628 -0.039685614 -0.04581824
000140 63 08 58 3c a5 5d 35 bd fb 45 eb 3c e6 29 8d bc
       0.013185593 -0.04427876 0.028719893 -0.017231893
000150 b2 b1 95 3d 4c 3d 39 bd e6 f3 e9 bb 05 c5 9f bd
       0.07309283 -0.045224473 -0.0071396707 -0.0780125
000160 30 cd a0 bd e4 0d 83 3d c5 78 1a 3c 31 54 64 bd
       -0.078516364 0.06399134 0.009428208 -0.055744354
000170 38 a9 8e bd 1e 5a 84 bd fa 75 56 bd 38 fe 94 3c
       -0.0696587 -0.06462501 -0.052358605 0.018187627
000180 13 ec a8 bd 55 5c a1 3d 69 52 2d bd 60 01 a9 bd
       -0.082481526 0.07878939 -0.04231492 -0.082522154
000190 7b 89 6e 3c dc be 1e bd c3 c5 97 3c 55 47 b1 3d
       0.014559145 -0.038756236 0.018526917 0.08656184
0001a0 95 ec 7b bd 96 e7 01 bd ce 8d 34 3c f9 80 06 bd
       -0.06150492 -0.031715 0.011020137 -0.03283784
0001b0 9f dc a8 3d 37 dc 82 bb d2 c6 63 bd a6 cb a2 bb
       0.08245205 -0.003993537 -0.05560953 -0.0049681244
0001c0 09 c9 74 bc 96 27 9d 3d 4e d6 9a 3d cf b2 4d bb
       -0.014940509 0.07673566 0.075604066 -0.0031387096
0001d0 a1 3e 80 3d 2a 8a 5f bd 9c 6f 28 3d 8f af dd bc
       0.062619455 -0.054575123 0.041122064 -0.027061252
0001e0 dc 19 87 3d ea 06 45 3a 07 08 f7 3c 69 6d 57 3d
       0.06596729 0.0007515984 0.030155195 0.052594576
0001f0 3a 52 3c 3c 8c c2 1e 3c b0 21 ad bd 1a 88 63 bd
       0.011494214 0.009689938 -0.08453691 -0.05554972
000200 70 31 20 3c 13 22 9a 3d 8e a1 fa bb 25 7a ab 3c
       0.009777412 0.075260304 -0.0076486534 0.020932266
000210 26 22 f8 3c 99 b4 16 3d e6 cf 0d 3d 75 f3 48 bd
       0.03028972 0.036793325 0.034622096 -0.049060304
000220 8e 3d 5a bd 85 4f 72 3d 95 d1 f0 3c a0 2f a4 3d
       -0.05328136 0.059157867 0.029396812 0.08016896
000230 f6 d6 14 bc d9 13 bd bc ac 5f 49 3d 38 30 8a bd
       -0.009084454 -0.023080753 0.049163505 -0.06747478
000240 6a 27 25 bd 83 99 b1 bd 92 3b de 3c c0 b6 85 bb
       -0.04032079 -0.08671858 0.027128015 -0.0040806234
000250 29 5e 4f bc d3 c8 a6 3d 02 28 9d bc 1b 6d 41 3d
       -0.012656727 0.08143773 -0.019184116 0.04722319
000260 3c 67 6f 3d c5 34 82 bd e6 86 42 3d 84 d9 a9 3d
       0.05844806 -0.06357721 0.04749193 0.08293441
000270 3e 5b 79 bd 6e d0 76 3d 7c 3b 4c 3d 1a ce 9f 3d
       -0.06087803 0.060257368 0.049861416 0.07802983
000280 5a 30 95 bd e1 ae 6d 3d 60 9c 23 bb 9e 72 6b 3c
       -0.07284613 0.058028106 -0.0024965033 0.014370589
000290 89 7a 39 bc eb 65 a0 3d 6d 11 02 bd b3 5b 64 3d
       -0.011320719 0.07831939 -0.0317549 0.055751514
0002a0 9f 1d 13 3d 49 ce 9d 3c 83 2d 47 bd 76 01 80 3c
       0.03591692 0.019263403 -0.048627388 0.015625697
0002b0 b0 19 d0 3b ad a1 94 bd 5e a4 14 bd 3e ce 90 bd
       0.0063507184 -0.072574 -0.036289565 -0.070705876
0002c0 fd d1 ad bd 22 0f f7 bc 0f ea 61 bd d6 1e 89 bd
       -0.08487318 -0.030158583 -0.055154856 -0.066953346
0002d0 e6 86 09 bd 3b 2c 3e 3d 39 53 6e 3c b0 67 de bc
       -0.033575915 0.0464289 0.014546209 -0.027149051
0002e0 10 89 ac bd c2 4b 8d bd e7 85 28 3d 79 0c 2f bd
       -0.0842458 -0.06899215 0.041143324 -0.042736504
0002f0 21 e5 2c 3d b9 03 82 bd 1a 5b 2a 3d c8 0d 82 bd
       0.0422107 -0.06348366 0.041590787 -0.06350285
000300 5b 0b 50 bd 48 3c 24 bd 1c 6e c2 3c 00 50 e7 3c
       -0.05079208 -0.04009655 0.023734145 0.02823639
000310 f8 ec d8 bc 9c fc c2 3c 72 95 46 3a 57 45 7c bc
       -0.026480183 0.023802094 0.00075753697 -0.015397391
000320 b9 a3 01 3c 7b 33 c1 bc fc 87 99 bd b7 48 fb 3c
       0.00791257 -0.023584118 -0.0749664 0.030674322
000330 29 51 9a 3d 03 33 26 3d 58 1a 97 3c 9b 12 87 3d
       0.07535011 0.040575992 0.018445179 0.065953456
000340 76 0e af bd 97 aa 47 bd 20 fc 48 bd 3e 4e 68 3d
       -0.0854768 -0.04874667 -0.04906857 0.056715243
000350 25 e6 a2 bb 64 e2 b1 bd 57 36 67 bd 7a f6 88 bc
       -0.004971283 -0.08685759 -0.056448307 -0.016719092
000360 28 82 46 bd 00 fd 0d bd 6e 7e c6 3c 03 ae 4c 3d
       -0.04846397 -0.034665108 0.024230208 0.049970638
000370 8d 0f 25 3c 66 cf 25 bd b5 c1 bf 3c 83 6e 72 3d
       0.010074508 -0.040480994 0.023407796 0.059187423
000380 a8 83 65 bb a9 1b 78 bb 0c 1b 8c bd 39 4b 4a 3d
       -0.00350211 -0.0037858284 -0.06841096 0.049388144
000390 2a 30 80 bd 20 f1 4b bd bc d6 86 3d 5e f9 a7 3d
       -0.062591866 -0.0497905 0.06583926 0.0820186
0003a0 b1 1c e1 bc 6d 69 91 bd 8a cf a5 3d 95 8e a3 3d
       -0.027479501 -0.071001865 0.080962256 0.0798618
0003b0 a9 8f a9 bd fc b1 95 bc 0e 1a 64 3a 5f 05 bc 3c
       -0.08279354 -0.018273346 0.0008701392 0.02295178
0003c0 10 cb bb bc 48 4d 70 bd d8 55 35 bd 18 a1 a1 bd
       -0.022923976 -0.05866745 -0.04427132 -0.07892054
0003d0 c6 9e 83 bc 59 22 a8 bc e2 fc 8e bd ac 9f af 3d
       -0.01606692 -0.02052419 -0.06981827 0.08575377
0003e0 99 8e 99 3c 80 23 4c bd 49 38 0d 3d 5c 00 8e 3d
       0.018744754 -0.049838543 0.034477506 0.06933662
0003f0 bf d9 80 bd 57 f1 34 bd 86 c4 92 3d 1d 62 a2 bd
       -0.06291532 -0.044175472 0.0716639 -0.0792887

fc2.bias f4 [21]
000000 b3 f9 97 bc 2c 31 44 bd 0b 9f bb 3c 6a f3 d6 3c
       -0.018551683 -0.047898456 0.022902986 0.026239116
000010 16 7c c1 3b ed 42 f9 3a 09 ae 95 bd a7 30 d7 3c
       0.005904685 0.0019017138 -0.07308585 0.026268316
000020 7a 27 5d 3d 15 bd 38 bc 22 21 4c 3d bd 57 af 3c
       0.053992726 -0.011275549 0.049836285 0.021404142
000030 a4 06 2e 3d 07 17 88 3c 48 d2 2c bd 8e 0d 79 3d
       0.0424868 0.016612543 -0.042192727 0.060803942
000040 8d 1d 2f 3d 46 dd 41 bc 32 72 8e 3a 6f 73 8e 3c
       0.04275279 -0.011832541 0.0010867773 0.017389027
000050 35 e6 70 bd
       -0.058813293
