agent_critic.pth (torch, 397775 bytes, 3 tensors)

fc1.weight f4 [128, 770]
0	0xbd10f370	-0.03538841
1	0x3c6fc9c0	0.014635503
2	0xbcb1d8a9	-0.021709757
3	0xbca65117	-0.020302339
4	0xbc396df6	-0.011317721
5	0xbd68009d	-0.05664121
6	0x3c63ee32	0.013911771
7	0x3d891d35	0.06695024
8	0xbbfd9788	-0.007739011
9	0xbd1a17e0	-0.037620425
10	0xbc31bd25	-0.010848318
11	0xbd2e4e48	-0.042555124
12	0x3c0ca3d9	0.008583986
13	0x3cfcc5b5	0.030855993
14	0x3c24addf	0.01005122
15	0x3ce4eb26	0.027944159
16	0xbcd70356	-0.026246708
17	0x3d937866	0.072006986
18	0x3d409d4a	0.047025003
19	0xbce48b7a	-0.027898539
20	0xbbf5c28c	-0.0074999984
21	0x3c5a86ce	0.013337804
22	0x3c6004b6	0.013672998
23	0xbc8ec3a1	-0.017427268
24	0x3d434f7a	0.047683217
25	0x3d0a27f9	0.033729527
26	0xbc694270	-0.014237031
27	0xbd201ef8	-0.039092034
28	0x3b51c4f3	0.003200826
29	0x3bd5e356	0.0065273447
30	0x3c6cd0ed	0.014454109
31	0xbcf8fc2d	-0.030393684
32	0xbd013a13	-0.031549525
33	0xbcac874c	-0.021060608
34	0xbd6994a2	-0.057026513
35	0xbd82383c	-0.06358382
36	0x3c8c3984	0.01711727
37	0xbd33e72d	-0.04392164
38	0x3cb01e87	0.021498932
39	0xbc46e899	-0.012140417
40	0x3ab687b4	0.0013925941
41	0xba8e5714	-0.0010859692
42	0x3d220aad	0.039560962
43	0xbc1f074a	-0.009706328
44	0xbd2456dd	-0.0401219
45	0xbb6d4b3a	-0.0036208169
46	0xbd989670	-0.07450569
47	0x3b8d75d2	0.004317024
48	0xbcb5c965	-0.022190759
49	0xbcbd34c9	-0.023096459
50	0x3d27674f	0.040870007
51	0x3c9ddb59	0.019269632
52	0xbc9d96b2	-0.019236896
53	0x3c899042	0.01679242
54	0x3c8c0d75	0.01709626
55	0x3d393821	0.045219544
56	0xbd1332a2	-0.03593696
57	0x3c78eec0	0.015193641
58	0x3d1bb1ac	0.038011238
59	0x3c507e21	0.012725384
60	0x3d63f753	0.05565579
61	0xbc9e07f9	-0.019290911
62	0xbd0ee955	-0.03489049
63	0x3c38e2b8	0.011284523
64	0xbd1d5c4d	-0.038418103
65	0x3c9e4d88	0.01932408
66	0x3c5b63ea	0.013390521
67	0x3d2844c3	0.0410812
68	0xbd131c75	-0.03591581
69	0x3c1365f7	0.008996478
70	0xbd50277f	-0.050818916
71	0xbcdeca86	-0.02719618
72	0x3d29250f	0.041295107
73	0xbd28b8e9	-0.04119197
74	0x3ce93496	0.028467458
75	0xbc696ce3	-0.014247152
76	0xbc971209	-0.018441217
77	0x3d773d87	0.06036141
78	0x3cd6437e	0.02615523
79	0x3b40dcf4	0.0029428573
80	0x3b695baa	0.0035607615
81	0x3d408a55	0.047006924
82	0x3c20791f	0.0097945025
83	0x3d756205	0.05990793
84	0xbcd2d2bd	-0.025735253
85	0x3cde9db7	0.027174814
86	0xbd0cd664	-0.034384146
87	0x3c9942a3	0.018708533
88	0xbcf2433c	-0.029573075
89	0x3d52eae6	0.051493548
90	0xbd074a09	-0.03302959
91	0xbd2bedf2	-0.04197497
92	0x3c9529cf	0.018208412
93	0x3c4fd8a1	0.012685926
94	0x3bbfe997	0.0058567035
95	0xbd2fc854	-0.042915657
96	0xbd002b0b	-0.03129105
97	0xbd1ae04a	-0.037811555
98	0xbb4b7aa4	-0.0031048441
99	0x3da1b107	0.078950934
100	0x3d2c2fd5	0.042037804
101	0xbcbe5d5f	-0.023237882
102	0x3b8a4776	0.0042199446
103	0x3c25db9f	0.0101231625
104	0xbd011972	-0.031518407
105	0xbd6741ee	-0.05645936
106	0xbc943793	-0.018092906
107	0xbd041f82	-0.03225661
108	0xbc83cd8e	-0.016089227
109	0xbd5a54cf	-0.053303536
110	0x3cad5a31	0.02116117
111	0x3cd2aad7	0.025716228
112	0x3d12f99f	0.03588259
113	0xbd095ae2	-0.03353394
114	0xbba38fca	-0.004991506
115	0x3ce2a0b0	0.027664512
116	0x3d4f145e	0.050556533
117	0xbbee6778	-0.007275518
118	0x3d0fea75	0.035135705
119	0x3c3b2653	0.011422711
120	0xbc1a9674	-0.009435285
121	0x3d715d86	0.05892708
122	0x3bd29d85	0.006427469
123	0xbc18f8a2	-0.009336622
124	0x3cb52b20	0.02211529
125	0x3d0f40eb	0.03497402
126	0xbcd99697	-0.026561065
127	0xbc90792d	-0.017635906
128	0xbc68fd2b	-0.014220516
129	0x3cf69793	0.030101573
130	0x3d83927c	0.06424424
131	0x3c5a2e2e	0.013316674
132	0xbca7e063	-0.020492738
133	0xbcddc7e0	-0.027072847
134	0xbd1ac60a	-0.03778652
135	0x3d200466	0.039066695
136	0x3d173785	0.036918182
137	0xbd1ee59b	-0.038793188
138	0xbd52d00b	-0.051467936
139	0xbd55dd6b	-0.052213114
140	0xbda4f537	-0.080545835
141	0xbbfe7654	-0.0077655707
142	0xbcff2f32	-0.031150434
143	0x3ba1da16	0.004939328
144	0x3c407dbc	0.011748727
145	0xbc3aba82	-0.011397006
146	0x3c87a009	0.016555803
147	0xbc06a075	-0.008216967
148	0x3d179bcd	0.037013818
149	0xbc5cdddb	-0.013480629
150	0x3cf77b81	0.030210258
151	0x3b9e4116	0.004829536
152	0xbcc26ccf	-0.023733525
153	0xbd153164	-0.036424056
154	0xbc5ba083	-0.013404968
155	0x3b4ead7d	0.0031536513
156	0xbd13aeb5	-0.036055285
157	0x3c190168	0.009338714
158	0xb92a8908	-0.00016263511
159	0x3d81eff9	0.06344599
160	0x3c469290	0.012119904
161	0xbd36662c	-0.044531032
162	0x3b8ab032	0.00423243
163	0x3cb77d67	0.022398664
164	0xbc5b2b69	-0.013377049
165	0xbd28585c	-0.04109989
166	0xbc85b390	-0.016320974
167	0xbbb63e8e	-0.0055616563
168	0x3cf0aadf	0.029378353
169	0x3cf24a4f	0.029576449
170	0x3c9333cb	0.017969033
171	0xbc9ade15	-0.018904725
172	0x3d80803f	0.06274461
173	0xbd11f49c	-0.03563367
174	0x3ca5737d	0.02019667
175	0xba90109f	-0.0010991282
176	0x3ced0840	0.028934598
177	0xbc0f3c44	-0.008742396
178	0x3c24f65f	0.010068505
179	0x3d1f609a	0.038910486
180	0xbc9ab809	-0.018886583
181	0x3d52304b	0.051315587
182	0x3d84e863	0.06489637
183	0x3c96661d	0.018359238
184	0x3d420d7b	0.047376137
185	0xbcf477db	-0.029842308
186	0x3d060c23	0.03272642
187	0xbcc67809	-0.02422716
188	0x3ced311c	0.028954081
189	0x3d052493	0.032505583
190	0xbc9f7f5c	-0.01946991
191	0xbd7faa70	-0.0624184
192	0xbd320024	-0.043457165
193	0xbcb8ee03	-0.02257443
194	0x3d411456	0.047138534
195	0x3b4ec124	0.0031548226
196	0x3cc9777a	0.024593104
197	0xbd8733e6	-0.06601696
198	0x3c8fc5eb	0.01755043
199	0x3d07008b	0.032959502
200	0xbd54c4e3	-0.05194558
201	0xbd33fa54	-0.043939903
202	0x3cc26a58	0.02373235
203	0x3d47d014	0.048782423
204	0xbbc4a881	-0.0060015325
205	0x3d72bbf6	0.059261285
206	0x3cb43729	0.021998959
207	0xbd34125e	-0.04396283
208	0x3d48c270	0.049013555
209	0x3d562c5e	0.052288406
210	0x3c84c4fc	0.01620721
211	0x3d78a311	0.060702387
212	0xbd0e1174	-0.034684613
213	0xbd7b3a0b	-0.06133465
214	0xbc597ced	-0.0132744135
215	0x3bdf6d7f	0.006818473
216	0x3c339997	0.010961912
217	0x3c6f981a	0.014623666
218	0xbc83b01c	-0.016075186
219	0xbd3122f1	-0.043246213
220	0x3c482036	0.012214711
221	0xbcd299b8	-0.025708064
222	0x3b0ad77b	0.0021185565
223	0x3c402d18	0.011729501
224	0xbcbe1278	-0.023202166
225	0xbc679fc1	-0.014137209
226	0x3d234749	0.039862905
227	0x3d2fd16b	0.042924326
228	0xbce44fd6	-0.0278701
229	0xbd18e05e	-0.03732335
230	0x38054f3a	3.1783457e-05
231	0xba7be4ec	-0.0009609002
232	0xbc457f53	-0.012054282
233	0x3d579550	0.05263263
234	0xbd16574c	-0.036704347
235	0x3c01a1ff	0.007912158
236	0xbc4ebb17	-0.012617848
237	0xbb71addb	-0.0036877308
238	0xb941a14c	-0.00018466002
239	0xbc4ca3a6	-0.012490189
240	0xbd5a139c	-0.053241357
241	0x3cca3c66	0.024687003
242	0x3d8cca45	0.06874517
243	0x3d392923	0.045205247
244	0xbbaea491	-0.0053296764
245	0x3bf1df99	0.0073813912
246	0x3d0f46f1	0.034979764
247	0xbcb6daf3	-0.0223212
248	0xbb6ffcaf	-0.0036619117
249	0xbd547ace	-0.05187493
250	0x3d79037f	0.06079435
251	0xbd22b3a1	-0.03972209
252	0x3c812c62	0.015768234
253	0xbb6932cd	-0.0035583258
254	0x3a35f487	0.00069410395
255	0xbd805035	-0.06265298

fc1.bias f4 [128]
0	0x3db90061	0.090332754
1	0xbcc47c24	-0.023984976
2	0x3d8ccdb4	0.06875172
3	0x3c87cc3c	0.016576879
4	0x3d41c048	0.047302514
5	0xbc070cbf	-0.008242785
6	0xbb988c7e	-0.00465542
7	0xbcd94cbb	-0.026525846
8	0xbc9d1ff6	-0.01918028
9	0x3caf4cbe	0.021398898
10	0x3db8f942	0.09031917
11	0x3d703e54	0.05865319
12	0x3c650f47	0.013980693
13	0x3d90f19c	0.07077333
14	0xbcc588b5	-0.024113039
15	0x3c63257c	0.013863917
16	0x3c892f3e	0.01674616
17	0xbc1864df	-0.009301393
18	0x3cbeb4f2	0.02327964
19	0x3c808a4d	0.015690947
20	0x3cc12de2	0.023581449
21	0x3dbdb26d	0.09262548
22	0xbcbf7943	-0.023373252
23	0x3d48f6ec	0.049063608
24	0xbd1e5c9c	-0.038662538
25	0xbc84eeab	-0.016227087
26	0x3c37d992	0.011221306
27	0xbcc11e57	-0.023574037
28	0xba0dfbba	-0.00054162333
29	0xbc88c765	-0.016696641
30	0x3d333e82	0.043760784
31	0x3dae8481	0.08521367
32	0xbc956da3	-0.018240755
33	0xbcdeb4b6	-0.027185779
34	0xbd0f0f30	-0.034926593
35	0x3d19e9dd	0.037576545
36	0xbd1d63fa	-0.038425423
37	0x3d5ab244	0.053392664
38	0x3cdcdfbe	0.026962157
39	0x3d531f94	0.051543787
40	0x3ad99196	0.0016599174
41	0x3c2e434c	0.010636162
42	0xbc0699c3	-0.008215371
43	0x3d620943	0.055184614
44	0x3ccaf3f1	0.024774523
45	0x3bdb46fc	0.0066918116
46	0x3c8d6f15	0.017264882
47	0xbcd1bf60	-0.02560395
48	0x3ceb85b3	0.028750276
49	0x3d593d7d	0.053037155
50	0x3d53a43b	0.051670294
51	0x3c516494	0.012780327
52	0x3d2df83b	0.04247306
53	0xbcf487ad	-0.029849852
54	0x3dac9ed8	0.084287345
55	0xbd04701a	-0.03233347
56	0x3cb8cf1c	0.022559695
57	0x3d5358b4	0.051598266
58	0x3c2654a9	0.0101520205
59	0xbce7d80e	-0.028301265
60	0x3bce3290	0.0062926486
61	0x3c3d1e42	0.011542859
62	0x3dd4261e	0.10358833
63	0x3dd4bbaf	0.1038736
64	0x3c87d7ff	0.016582487
65	0x3c7d3914	0.015455503
66	0x3b4f56d1	0.003163744
67	0xbbca6ab0	-0.006177269
68	0x3d39f587	0.04540017
69	0x3da0b48a	0.07846935
70	0x3d82d1b1	0.06387652
71	0xbd1140bf	-0.035462137
72	0xbcfa1b5e	-0.030530628
73	0xbbcb3727	-0.006201643
74	0xbc1c4921	-0.00953892
75	0xbbdd604d	-0.0067558647
76	0x3db5b8e7	0.08873158
77	0xbcc94e6a	-0.024573524
78	0xbbdcaaa6	-0.00673421
79	0x3dccd5d4	0.10001722
80	0xbcbc0196	-0.022949975
81	0x3cdd479c	0.027011685
82	0x3c8daf48	0.017295495
83	0xbb5be1f0	-0.0033551417
84	0x3d4ffc06	0.050777458
85	0xbc78043d	-0.015137729
86	0x3d996fcb	0.07492026
87	0xbb9ce375	-0.004787857
88	0x3d70f20b	0.05882458
89	0x3d229c21	0.039699677
90	0x3dc39641	0.09550143
91	0x3d3f0715	0.046637613
92	0xbd268525	-0.04065432
93	0x3dc8d045	0.09805349
94	0xbd1a3f49	-0.03765801
95	0xbd07929a	-0.033098795
96	0x3d03721f	0.032091256
97	0xbce416d7	-0.027842922
98	0xbcf0dc80	-0.029402018
99	0x3cd4e405	0.025987634
100	0xbd2f0cdd	-0.042736877
101	0x3dae1c16	0.08501451
102	0x3daef45c	0.085427016
103	0xbbb19819	-0.005419743
104	0xbcbaa90f	-0.022785692
105	0x3be0f797	0.0068654525
106	0x3dd8166d	0.105511524
107	0x3d5caf1e	0.053877942
108	0xbd27afb0	-0.040939033
109	0x3cdc55b6	0.026896339
110	0x3cbac3ae	0.022798385
111	0xbb2bdba5	-0.0026223448
112	0xbd028f9c	-0.031875238
113	0x3ca07725	0.019588063
114	0x3d925e58	0.07146901
115	0x3d8f854a	0.07007845
116	0x3c91ccb8	0.017797813
117	0x3c536c79	0.01290428
118	0x3da3881f	0.079849474
119	0xbbdaa68b	-0.0066726855
120	0x3c47477e	0.012163041
121	0xbca43484	-0.020044573
122	0xbcf7fd36	-0.030272108
123	0x3d2786d1	0.040900055
124	0x3dae4f32	0.08511199
125	0x3d282b25	0.04105677
126	0x3d317478	0.043323964
127	0x3dc2c3c3	0.09509995

fc2.weight f4 [1, 128]
0	0x3e1be98e	0.15225813
1	0xbd954594	-0.072886616
2	0x3e020d21	0.12700321
3	0xbc71ec77	-0.01476585
4	0x3dd52c40	0.10408831
5	0xbc9a3c44	-0.018827565
6	0xbd26fd99	-0.040769193
7	0x3ce1701c	0.027519278
8	0xbd47bef9	-0.04876611
9	0xbca826b2	-0.020526264
10	0x3d931a31	0.0718273
11	0x3da0365f	0.078228705
12	0xbd0d7d8d	-0.034543563
13	0x3dd38c4a	0.103294924
14	0x3b8a370c	0.004217988
15	0xbc3051fa	-0.010761732
16	0x3ba858b5	0.005137528
17	0x3d244cdb	0.040112358
18	0xbd183070	-0.03715557
19	0xbbea4780	-0.0071496367
20	0xbce1d6e2	-0.027568284
21	0x3e13e426	0.144425
22	0x3c426d5d	0.011866895
23	0x3e18880f	0.14895652
24	0xbcb9acea	-0.02266546
25	0x3d81f092	0.06344713
26	0x3da9f6f5	0.082990564
27	0xbc909f43	-0.017654067
28	0xbd2fd808	-0.042930633
29	0x3b70959b	0.0036710266
30	0x3dc4d980	0.09611797
31	0x3dc50414	0.096199185
32	0xbd41c0f8	-0.04730317
33	0xbd472549	-0.048619542
34	0x3d96e937	0.07368701
35	0x3d3c5923	0.045983445
36	0xbd878be7	-0.06618481
37	0x3e0d3341	0.13789083
38	0xbcf61f71	-0.03004429
39	0x3e179ac5	0.14805134
40	0x3a9a80de	0.0011787673
41	0x3d3a394e	0.045464806
42	0x3d044575	0.032292802
43	0x3e002f61	0.12518074
44	0x3ccc4184	0.024933584
45	0xbd27cce1	-0.040966872
46	0xbd9a2eea	-0.075284794
47	0xbb7e2212	-0.0038777632
48	0xbda75aa9	-0.08171589
49	0x3d937280	0.071995735
50	0x3e145db6	0.14488873
51	0x3da78dfc	0.08181378
52	0x3d85da37	0.06535762
53	0xbd04a32c	-0.032382175
54	0x3dd64aae	0.10463463
55	0xb8da6067	-0.000104130064
56	0x3c4d84fb	0.012543912
57	0x3e097f1b	0.13427393
58	0xbd3b528b	-0.045733016
59	0xbd959c7a	-0.07305236
60	0x3d4cc850	0.04999572
61	0x3d8892c1	0.06668616
62	0x3daab88d	0.083359815
63	0x3d8f35f2	0.06992711
64	0x3dd85b87	0.105643325
65	0xbd3d4262	-0.046205886
66	0xbbee94aa	-0.0072809057
67	0xbd432a27	-0.04764762
68	0x3dd6ad2d	0.104822494
69	0x3dfb9d98	0.12285918
70	0x3e16f3b0	0.14741397
71	0xbd3e0aee	-0.046397142
72	0xb9b828f2	-0.00035125721
73	0xbcc0fa28	-0.023556784
74	0xbd504a1b	-0.050851922
75	0xbc563d35	-0.013076116
76	0x3d9740d2	0.0738541
77	0xbd18d733	-0.037314605
78	0xbd8d13d3	-0.06888547
79	0x3d9bab94	0.07601085
80	0xbbc80c56	-0.006104986
81	0x3dedaa49	0.11604745
82	0xbd274414	-0.04083641
83	0xbd1fa378	-0.038974255
84	0x3da836a6	0.08213548
85	0xbd31e383	-0.043429863
86	0x3e0548eb	0.13016097
87	0xbda1cb04	-0.0790005
88	0x3d944b4d	0.07240925
89	0x3e02cfac	0.12774533
90	0x3df11a16	0.117725536
91	0x3dc4669a	0.09589882
92	0x3d04c69f	0.032415982
93	0x3df7fe15	0.12109009
94	0x3d756b7d	0.059916962
95	0xb9f9f7f2	-0.00047677715
96	0x3e09011d	0.13379331
97	0xbd88b6b9	-0.066754766
98	0xbda3899c	-0.07985231
99	0x3dddb238	0.10825008
100	0xbd7645fd	-0.06012534
101	0x3d97e113	0.074159764
102	0x3e08f315	0.13373978
103	0xbcaa2290	-0.020768434
104	0xbd0895d2	-0.033346005
105	0xbd865743	-0.065596126
106	0x3db1d1a5	0.08682565
107	0x3dc06fa5	0.093962945
108	0x3cc63711	0.02419618
109	0x3ca1977f	0.01972556
110	0xbc932ce7	-0.017965747
111	0x3b94df15	0.004543195
112	0x3d3bb0f3	0.04582305
113	0x3d679f09	0.056548152
114	0x3dee9490	0.1164943
115	0x3d7954a0	0.06087172
116	0x38066439	3.204143e-05
117	0xbd27310d	-0.040818263
118	0x3db615f0	0.08890903
119	0xbd5b7340	-0.053576708
120	0xbd0ae850	-0.033912957
121	0xb988dc96	-0.0002610429
122	0xbd4a1d34	-0.049344257
123	0x3db641fa	0.08899303
124	0x3dc3c365	0.09558753
125	0x3d9364bc	0.07196948
126	0x3c05c3a8	0.008164324
127	0x3d9b4d0c	0.07583055
